weights.pth (torch_old, 79136 bytes, 12 tensors)

fc1.weight f4 [64, 37]
0.22413252 0.010873076 0.17367567 -0.14047952 -0.110665604 -0.3030479 -0.10411482 0.29769793
0.12936467 -0.44643965 0.11444168 0.010679768 -0.09835887 -0.0804272 -0.2020214 0.07611672
0.17309783 0.17424929 -0.481575 0.37906888 0.006642415 0.18291429 -0.042420432 0.091984086
0.2502238 0.16075306 0.32893464 -0.15905362 -0.49175438 -0.443625 0.053185318 0.12036277
-0.81967854 0.37343362 -0.2559805 -0.026904795 -0.12063124 0.02295191 0.11912756 0.20150283
-0.07955537 -0.24758765 -0.15616284 -0.010237462 0.051774904 -0.26015314 -0.14620113 -0.14262263
-0.41871983 0.41438457 0.3809934 0.5325011 -0.13094135 0.40035772 0.0084768655 -0.14187609
-0.20227067 -0.30476752 0.06725338 -0.1987232 0.026886417 0.602889 -0.08142654 -0.29519728
0.28322276 0.13014963 0.45342603 -0.2901902 0.3414433 -0.0717858 0.3598224 0.16657333
-0.022337578 -0.032273307 0.6527802 -0.133195 -0.3112612 -0.7284581 -1.4894842 0.0983734
-0.40531066 0.25960076 0.08744862 0.0058193007 0.14548245 -0.24994229 0.27596757 -0.033688813
-0.18090715 -0.19858062 0.2429666 0.06472118 0.47314605 0.4922973 -0.14276198 0.034123115
-0.14763264 0.24055971 -0.22331563 0.04418066 0.039912887 0.050654292 0.16734709 0.059541687
-0.016401956 -0.13327928 -0.027616685 -0.14541283 -0.12454619 -0.020410292 -0.046787772 0.23477383
-0.041558683 0.13507885 0.22188327 0.071507476 0.117549345 0.12080754 0.041101974 0.24644555
0.32618037 -0.12146454 -0.10428055 0.17756684 0.16620335 0.27729627 -0.088158675 -0.025535196
-0.009760566 0.02370409 -0.18167096 0.3866267 -0.8856835 -0.6074446 -0.37244585 -2.3157003
-0.14949378 -0.072641775 0.31554997 0.0052980953 0.073038 0.12823386 0.123815686 0.0035314122
0.051103357 0.09312244 0.014131781 0.034686554 -0.3956139 -0.009538128 0.081536084 -0.23472151
-0.17483345 -0.018112723 -0.086725965 -0.03963002 -0.09881383 -0.10361766 0.16089799 0.1806004
-0.8692582 -0.3320118 -0.903091 0.04279072 -0.502482 -0.08658841 -0.20029625 0.19798893
-0.28704357 -0.15640739 0.12251118 0.05768124 0.38824734 -0.06511958 -0.17592736 -0.02571252
0.10461819 0.086479604 -0.15023765 -0.28324854 -0.073200844 0.3465611 0.5756165 0.024696203
-0.023988998 0.12161633 -0.16960306 0.06488224 0.13245691 0.11517879 0.47918278 -0.28438637
-0.47271615 -0.5600129 -2.526011 0.0047924416 0.014765719 -0.19140625 0.061768025 0.15152772
-0.0777864 0.19697684 0.08370352 -0.03616576 -0.15580577 0.10728223 -0.20091042 0.29018316
0.25368953 -0.18443705 -0.057441257 0.07019858 0.231561 0.016058423 -0.009021383 -0.025729502
0.06588598 0.19682421 -0.044826638 -0.12938209 0.026864689 0.018137172 0.07987295 0.23280403
-0.15259883 -0.52896434 -0.20181927 -0.32876384 0.026382135 -0.3568426 0.5211156 0.3240326
-0.17356879 -0.34086916 0.34078276 -0.05003232 0.11611504 -0.090654194 -0.16767976 -0.081331044
-0.17134269 0.20194851 -0.020470597 -0.21513072 0.030108936 -0.18766303 0.57472265 -0.3414554
0.039388705 -0.16199182 -0.055584896 0.38183376 0.013802493 -0.15114221 -0.027088495 -0.18026365
00000000: ff82 653e fc24 323c 09d8 313e ddd9 0fbe
00000010: a6a4 e2bd 1829 9bbe 273a d5bd dd6b 983e
00000020: 2c78 043e bd93 e4be 6660 ea3d 32fa 2e3c
00000030: 6070 c9bd 04b7 a4bd b3de 4ebe 15e3 9b3d
00000040: 8f40 313e 686e 323e 0091 f6be 5115 c23e
00000050: 9ea8 d93b e24d 3b3e 0cc1 2dbd 2762 bc3d
00000060: 551d 803e 739c 243e 1f6a a83e f4de 22be
00000070: 3bc7 fbbe d122 e3be d9d8 593d c280 f63d
00000080: 74d6 51bf b132 bf3e e00f 83be 7267 dcbc
00000090: 830d f7bd a505 bc3c 26f9 f33d c256 4e3e
000000a0: eded a2bd 9e87 7dbe 27e9 1fbe 07bb 27bc
000000b0: ec11 543d cb32 85be c0b5 15be ab0b 12be
000000c0: 7262 d6be 372a d43e 9111 c33e fe51 083f
000000d0: 7d15 06be b0fb cc3e 8de2 0a3c f747 11be
000000e0: 0b20 4fbe 7d0a 9cbe 24bc 893d 187e 4bbe
000000f0: e740 dc3c ef56 1a3f f5c2 a6bd 1924 97be
00000100: 9302 913e f245 053e 7527 e83e cf93 94be
00000110: a8d1 ae3e 6f04 93bd a43a b83e 3392 2a3e
00000120: 4cfd b6bc 0431 04bd 9a1c 273f 4564 08be
00000130: a15d 9fbe 3b7c 3abf 6ba7 bebf fe77 c93d
00000140: e184 cfbe 64ea 843e 4318 b33d d5af be3b
00000150: 5af9 143e dff0 7fbe 9f4b 8d3e 48fd 09bd
00000160: b93f 39be b858 4bbe 3dcc 783e 8a8c 843d
00000170: 3340 f23e 640e fc3e 3230 12be aec4 0b3d
00000180: 032d 17be 4955 763e daac 64be c8f6 343d
00000190: b27b 233d e07a 4f3d 095d 2b3e fce1 733d
000001a0: 655d 86bc 5d7a 08be 633c e2bc 1ae7 14be
000001b0: 1312 ffbd 7c33 a7bc 89a4 3fbd 8d68 703e
000001c0: 7039 2abd 1c52 0a3e 5e35 633e 8372 923d
000001d0: b6bd f03d f269 f73d 8b5a 283d 395c 7c3e
000001e0: 1d01 a73e 67c2 f8bd 0a91 d5bd 15d4 353e
000001f0: 3631 2a3e c7f9 8d3e 898c b4bd 302f d1bc
00000200: c8ea 1fbc 142f c23c f407 3abe eff3 c53e
00000210: 27bc 62bf 7d81 1bbf 39b1 bebe 6f34 14c0
00000220: e614 19be 36c5 94bd c48f a13e a59b ad3b
00000230: f294 953d bd4f 033e 1493 fd3d 446f 673b
00000240: c151 513d fab6 be3d fc88 673c 7d13 0e3d
00000250: e88d cabe cf45 1cbc 64fc a63d d65a 70be
00000260: 8a07 33be 2261 94bc 629d b1bd 1653 22bd
00000270: e85e cabd 7f35 d4bd 71c2 243e 50ef 383e
00000280: b587 5ebf 73fd a9be f930 67bf 5245 2f3d
00000290: a9a2 00bf 4455 b1bd 761a 4dbe 9cbd 4a3e
000002a0: 60f7 92be 4229 20be 24e7 fa3d 2a43 6c3d
000002b0: 5bc8 c63e 6a5d 85bd 4d26 34be 10a3 d2bc
000002c0: 1042 d63d 381c b13d e6d7 19be f405 91be
000002d0: 53ea 95bd 7570 b13e 9a5b 133f b14f ca3c
000002e0: 9384 c4bc fc11 f93d 6dac 2dbe fbe0 843d
000002f0: c9a2 073e dce2 eb3d 7257 f53e 179b 91be
00000300: da07 f2be 015d 0fbf 2aaa 21c0 ea09 9d3b
00000310: eaeb 713c 0000 44be 7800 7d3d 152a 1b3e
00000320: 7a4e 9fbd 4cb4 493e c06c ab3d 8c22 14bd
00000330: 8c8b 1fbe c9b6 db3d 76bb 4dbe e392 943e
00000340: 98e3 813e 11dd 3cbe 8647 6bbd 46c4 8f3d
00000350: 541e 6d3e f48c 833c 6cce 13bc adc6 d2bc
00000360: 3bef 863d 498c 493e 239c 37bd bd7c 04be
00000370: 5613 dc3c 6894 943c 6e94 a33d 2e64 6e3e
00000380: de42 1cbe 356a 07bf b6a9 4ebe bc53 a8be
00000390: 591f d83c 13b4 b6be d567 053f 9ae7 a53e
000003a0: 04bc 31be 6786 aebe 147b ae3e b1ee 4cbd
000003b0: b9cd ed3d e8a8 b9bd 3eb4 2bbe e490 a6bd
000003c0: 7574 2fbe 97cb 4e3e f4b1 a7bc 3a4b 5cbe
000003d0: 04a7 f63c bd2a 40be 0621 133f 3ed3 aebe
000003e0: 0d56 213d 2fe1 25be fdac 63bd b77f c33e
000003f0: da23 623c 06c5 1abe b1e8 ddbc 0997 38be

fc1.bias f4 [64]
0.1944169 -0.17043887 -0.1380635 -0.15239309 0.018535245 0.016062096 -0.18721406 0.030446101
-0.017475406 -0.10272582 0.058665346 0.18565628 0.032009967 0.023303993 -0.06807702 -0.12946135
-0.04968405 -0.042195756 0.059537753 -0.3074114 -0.11393583 0.0075795655 -0.007497111 -0.011934472
0.007185515 0.15584664 -7.004458e-05 -0.078726225 0.20976286 0.13986424 -0.12361232 -0.20592237
0.15352531 0.04833912 -0.2787181 0.08681615 -0.06728588 -0.014872277 -0.12596299 -0.17908056
-0.25980067 -0.21969354 -0.24225254 0.18294293 -0.0069855964 -0.15845738 -0.14655188 -0.17243955
-0.2542427 0.11844392 -0.21258643 0.15805645 -0.0984023 -0.060616836 -0.049684606 -0.00084716507
-0.04622811 -0.008515721 -0.016438222 -0.11071802 -0.042914547 0.006745492 -0.046207193 -0.20044935
00000000: 3915 473e 8787 2ebe 8560 0dbe ef0c 1cbe
00000010: 3ad7 973c a894 833c 0bb5 3fbe 1a6a f93c
00000020: 9528 8fbc ea61 d2bd 134b 703d ae1c 3e3e
00000030: e21c 033d 04e8 be3c f76b 8bbd 8491 04be
00000040: 8181 4bbd 75d5 2cbd dcdd 733d 0765 9dbe
00000050: 3057 e9bd 015e f83b 53aa f5bb ce88 43bc
00000060: 7874 eb3b 4396 1f3e e6e4 92b8 373b a1bd
00000070: 13cc 563e 9238 0f3e 7528 fdbd 50dd 52be
00000080: bd35 1d3e 3eff 453d 24b4 8ebe aacc b13d
00000090: 2ecd 89bd daaa 73bc 71fc 00be e560 37be
000000a0: 9804 85be 58f7 60be 0d11 78be 6455 3b3e
000000b0: 6ee7 e4bb a742 22be b211 16be fe93 30be
000000c0: 192c 82be ba92 f23d 42b0 59be 8dd9 213e
000000d0: 2587 c9bd 5c49 78bd 1682 4bbd 4914 5eba
000000e0: b059 3dbd 8685 0bbc 73a9 86bc 21c0 e2bd
000000f0: 2ac7 2fbd 4a09 dd3b c143 3dbd 9842 4dbe

fc2.weight f4 [64, 64]
0.12638442 0.24345349 0.2210262 0.08077796 -0.11519489 -0.23636574 0.14994274 0.08361711
-0.5717565 -0.12980007 0.2619636 -0.24790749 -0.03998259 0.4092542 -0.28416815 0.05079712
-0.0897162 -0.30789828 0.057194516 -0.40683416 -0.1934916 0.39125827 0.3793525 0.17972928
-0.07052133 0.57864594 0.11152608 0.13916437 -0.20207986 -0.68881536 0.29646182 0.0021747893
0.13170448 0.29005498 0.13773179 0.05103938 -0.19013397 -0.041981675 0.23344299 -0.40054402
-0.21244156 -0.4441812 0.009033462 -0.56076276 0.3080378 -0.03595777 -0.5745803 -0.17898901
0.027833937 0.00694216 -0.32216743 -0.25998536 -0.38860607 -0.20039234 -0.067097865 -0.09429612
0.042994913 -0.1785563 0.055945486 0.3096449 -0.28755417 0.35029042 -0.29732788 -0.028581513
0.34964436 -0.20359302 -0.35402286 -0.36862457 -0.24415654 0.31233844 -0.3937937 0.37609354
0.35252094 -0.3364814 0.036441438 0.2550609 0.23802958 0.099559724 -0.05228729 -0.18323661
-0.3511349 0.17206223 0.17829813 -0.12356127 0.11774474 0.20416161 -0.360717 0.20998527
0.25696692 0.072395 -0.6548125 -0.09864486 0.14256185 0.04166087 -0.12252763 -0.0059137465
-0.0020686996 -0.16299075 -0.026584402 -0.03316561 -0.21327122 -0.13410796 0.232076 -0.028429728
-0.2869314 -0.06535957 -0.16541617 -0.2554488 -0.07876134 -0.37660983 -0.11607079 0.03724994
0.3080121 -0.4784656 -0.32039496 0.24380909 0.2623112 -0.7389883 -0.04812846 -0.23123606
-0.059818346 -0.255604 0.29434454 0.17172235 -0.019923128 -0.26004967 0.41559365 0.26550615
0.02210019 -0.23957078 0.5994109 -0.15781227 -0.5397229 0.113352045 -0.060139716 0.2953497
0.08311306 0.21900919 -0.040850304 -0.03861467 -0.15325564 0.1250927 0.0059836293 -0.4865993
-0.3939088 -0.17468669 0.21512568 -0.33966702 0.23140962 0.06401693 -0.36743933 0.012751665
-0.0062156618 0.16617948 0.35982066 0.23790929 -0.083721474 -0.139887 -0.053230364 0.20675395
-0.844833 -0.27957943 -0.26768962 0.29787835 -0.21832888 0.05006702 -0.21371402 -0.4222247
-0.033472072 -0.21339652 -0.49863604 -0.33317816 0.279166 0.45909435 0.19714749 0.17440341
-0.23914781 -0.49342322 0.10308196 0.0639936 -0.6026821 -0.2618493 -0.16347486 0.19248691
-0.6746308 -0.09211309 0.12266293 0.35110506 -0.34376803 -0.039247204 -0.07355334 -0.27946275
-0.049446125 -0.028508447 -0.006326734 0.036963664 -0.10917878 0.13037348 0.013941025 -0.12858589
-0.030004855 0.2193297 -0.0039172745 0.14895763 0.09486946 -0.01714071 0.3150742 -0.022837285
-0.20312439 0.09844925 -0.034093734 -0.055963635 0.0062239394 -0.008307128 -0.15156633 0.104783595
0.27316356 0.041320667 -0.05570992 0.37958437 0.6000385 -0.15746847 -0.847813 0.1993307
-0.095879145 0.046115443 0.08093721 0.16934018 -0.028225996 0.17784214 0.12251648 -0.051269032
-0.077582784 0.13087437 -0.1915311 -0.068040416 -0.028400905 0.042311847 -0.022290051 -0.075154744
0.07878575 0.15702893 -0.14873777 -0.122742936 0.08899351 0.6432813 -0.1711881 -0.037004076
-0.048924092 -0.06660897 -0.33227858 -0.117878325 -0.07300248 -0.06360154 -0.024796633 0.0568761
00000000: eb6a 013e df4b 793e b154 623e ea6e a53d
00000010: 4ceb ebbd dc09 72be 978a 193e 733f ab3d
00000020: a25e 12bf 4fea 04be 1820 863e 76db 7dbe
00000030: c9c4 23bd c489 d13e 7d7e 91be a410 503d
00000040: 21bd b7bd d8a4 9dbe cc44 6a3d 914c d0be
00000050: a922 46be 0153 c83e 7e3a c23e f40a 383e
00000060: 7d6d 90bd 2422 143f c967 e43d 1b81 0e3e
00000070: 06ee 4ebe 3456 30bf d8c9 973e e986 0e3b
00000080: 8add 063e 1682 943e 9009 0d3e ab0e 513d
00000090: 7bb2 42be faf4 2bbd ae0b 6f3e 1b14 cdbe
000000a0: 488a 59be b86b e3be 1601 143c 268e 0fbf
000000b0: 21b7 9d3e 7448 13bd b217 13bf e548 37be
000000c0: ff03 e43c 0f7b e33b 21f3 a4be cd1c 85be
000000d0: 60f7 c6be a633 4dbe 9b6a 89bd 531e c1bd
000000e0: 6f1b 303d 76d7 36be 1827 653d c789 9e3e
000000f0: 4d3a 93be 4459 b33e 5c3b 98be c723 eabc
00000100: 9604 b33e b07a 50be 7c42 b5be 5cbc bcbe
00000110: 2c04 7abe d3ea 9f3e 549f c9be 558f c03e
00000120: a07d b43e 4a47 acbe 9e43 153d 5897 823e
00000130: 07be 733e f8e5 cb3d 332b 56bd 61a2 3bbe
00000140: f4c7 b3be 1531 303e c993 363e b10d fdbd
00000150: 2724 f13d be0f 513e e6af b8be 6106 573e
00000160: 2b91 833e d443 943d cba1 27bf 5106 cabd
00000170: bcfb 113e 97a4 2a3d c4ef fabd 1ac8 c1bb
00000180: 0593 07bb 0ce7 26be 88c7 d9bc aad8 07bd
00000190: c563 5abe 9953 09be 55a5 6d3e 76e5 e8bc
000001a0: ace8 92be 3ddb 85bd db62 29be 2fca 82be
000001b0: a04d a1bd 01d3 c0be 86b6 edbd 6593 183d
000001c0: c3b3 9d3e 71f9 f4be cf0a a4be 17a9 793e
000001d0: a74d 863e 562e 3dbf 5922 45bd 25c9 6cbe
000001e0: 1504 75bd 87de 82be 54b4 963e fcd7 2f3e
000001f0: d435 a3bc 3b25 85be b1c8 d43e 6cf0 873e
00000200: 750b b53c 0b52 75be fe72 193f 8a99 21be
00000210: 482b 0abf 1e25 e83d 1055 76bd 1338 973e
00000220: 2e37 aa3d f243 603e a652 27bd 6b2a 1ebd
00000230: 0cef 1cbe 4d18 003e 5212 c43b 8b23 f9be
00000240: 6aae c9be 11e1 32be e849 5c3e d6e8 adbe
00000250: a5f6 6c3e 4f1b 833d 0221 bcbe 5cec 503c
00000260: c0ac cbbb f42a 2a3e 6a3a b83e 7e9e 733e
00000270: 2a76 abbd 8a3e 0fbe 1508 5abd 4fb7 533e
00000280: fa46 58bf 0925 8fbe 9d0e 89be 8383 983e
00000290: 9b91 5fbe 1313 4d3d d9d7 5abe d62d d8be
000002a0: 031a 09bd 9e84 5abe 394d ffbe 5496 aabe
000002b0: d9ee 8e3e 6a0e eb3e 08e1 493e cf96 323e
000002c0: 2ae3 74be f8a1 fcbe a21c d33d 140f 833d
000002d0: 6049 1abf 1d11 86be f465 27be 4a1b 453e
000002e0: 9bb4 2cbf caa5 bcbd b436 fb3d 0bc4 b33e
000002f0: 5d02 b0be adc1 20bd 22a3 96bd be15 8fbe
00000300: 0588 4abd 8c8a e9bc 7e50 cfbb 3667 173d
00000310: 2099 dfbd a080 053e e668 643c 05ac 03be
00000320: becc f5bc f797 603e 7b5c 80bb 5988 183e
00000330: eb4a c23d ad6a 8cbc 6851 a13e 4215 bbbc
00000340: d7ff 4fbe c39f c93d dfa5 0bbd 203a 65bd
00000350: 30f2 cb3b 9f1a 08bc 3434 1bbe c898 d63d
00000360: 18dc 8b3e dc3f 293d 1630 64bd e258 c23e
00000370: 209c 193f 6a3f 21be 460a 59bf 591d 4c3e
00000380: 495c c4bd 8ce3 3c3d 68c2 a53d 8367 2d3e
00000390: 343a e7bc 401c 363e ece9 fa3d 7aff 51bd
000003a0: b9e3 9ebd ee03 063e bb20 44be c658 8bbd
000003b0: 04a9 e8bc 304f 2d3d a099 b6bc bbea 99bd
000003c0: 6c5a a13d 31cc 203e b74e 18be a660 fbbd
000003d0: 3b42 b63d 15ae 243f ef4b 2fbe 9691 17bd
000003e0: a164 48bd 496a 88bd 6b20 aabe 316a f1bd
000003f0: 5382 95bd 8641 82bd 4f22 cbbc eaf6 683d

fc2.bias f4 [64]
-0.19277641 -0.12551083 -0.10239315 0.037683126 -0.068195015 -0.24697742 -0.19266681 -0.09980123
-0.18508154 0.019325413 0.008111572 0.089803584 0.0078693265 -0.030272571 -0.033074193 0.1692967
0.011260076 -0.121211305 -0.15584409 -0.15528348 -0.06291787 0.20961992 -0.28908193 -0.049509414
-0.13133346 0.060215723 0.019650336 -0.16212691 0.08613254 0.136914 -0.014477064 -0.08148186
-0.2075332 0.30920723 -0.022618089 -0.1484196 -0.05703921 0.012133345 -0.0032415127 0.039436348
-0.23667365 0.0041687367 -0.09236357 -0.2877664 0.06730267 -0.12570943 -0.122398935 -0.06847544
0.06056308 -0.23047285 -0.1746926 -0.08811944 -0.13185433 -0.06599359 -0.1425204 -0.04095099
-0.20255505 -0.04729543 -0.11461979 0.22129205 0.15238102 -0.08539311 0.26754606 0.0091863675
00000000: 2e67 45be e985 00be 80b3 d1bd 9f59 1a3d
00000010: d4a9 8bbd a6e7 7cbe 734a 45be 9664 ccbd
00000020: 0486 3dbe 5450 9e3c 66e6 043c f1ea b73d
00000030: 59ee 003c 2ffe f7bc ce78 07bd 1d5c 2d3e
00000040: 2f7c 383c a23d f8bd 9895 1fbe a202 1fbe
00000050: 16db 80bd 9ba6 563e 8c02 94be 62ca 4abd
00000060: 477c 06be c3a4 763d bef9 a03c 9904 26be
00000070: 4266 b03d 2f33 0c3e 3531 6dbc f6df a6bd
00000080: 9583 54be 6950 9e3e 9249 b9bc 4ffb 17be
00000090: f2a1 69bd f0ca 463c 8f6f 54bb 0288 213d
000000a0: 945a 72be e699 883b 1d29 bdbd 1e56 93be
000000b0: fbd5 893d f9b9 00be 4bac fabd da3c 8cbd
000000c0: fe10 783d 1301 6cbe 9ee2 32be f777 b4bd
000000d0: d204 07be a627 87bd def0 11be 3abc 27bd
000000e0: 976a 4fbe dab8 41bd c8bd eabd 629a 623e
000000f0: c509 1c3e 95e2 aebd ccfb 883e 6b82 163c

fc3.weight f4 [64, 64]
-0.16156279 0.1349876 0.09664684 -1.3615023 -0.4029011 -0.1031689 0.09665893 -0.047619864
0.19263332 -0.6179951 -0.103535965 0.15479113 0.3121348 0.4945165 -0.04945417 0.036679294
0.116922654 0.23563409 -0.6606448 0.7030726 0.19377315 0.049823496 0.058479827 0.036474228
-0.2419024 0.046050996 -0.5682672 0.027981408 0.033280708 -0.22650555 0.22296359 0.11064223
-0.033914108 0.07597602 -0.38930586 0.28493565 -0.041377533 -0.10278121 0.0014948372 0.1884808
-0.22331351 0.01686664 -0.4297822 0.13058004 0.104897395 0.073858775 0.37058833 -0.049164474
-0.05706279 0.37188372 0.26986408 -0.32276472 0.16095029 -0.07840737 0.08783917 -0.5539637
0.008240667 -0.17284699 0.44603816 0.121037334 0.0719775 0.21994166 0.16472937 0.45103398
-0.35693392 -0.73609287 0.2883145 0.07250634 -0.08940992 -0.618101 -0.4345919 -0.20292124
-0.83785665 -0.21660517 0.29899484 0.105875045 -0.80667233 0.009839775 0.30715483 0.18830241
-0.07952821 -0.18831533 -0.44911024 -0.37626505 -0.007625965 -0.3776593 -0.2685202 0.18421346
-0.09571628 -0.4625274 -0.7011624 0.35545292 -0.6419683 -0.23331378 -0.19819336 -0.10962325
-0.34367612 -0.16962883 0.28897822 -0.15417498 0.09337349 -0.048185505 0.038419966 0.037202742
0.39433926 -0.058417425 0.19887827 -0.7025573 -1.2444618 0.00081118784 0.0115049705 -0.36689356
-0.23566799 -0.033258013 -0.032263223 -0.5982825 0.20488198 0.13669188 -0.002287276 -0.087041095
-0.6252318 -0.08981198 -0.009174592 -0.009826829 0.2109786 -0.49557737 -0.63211155 0.08208108
0.057469573 0.064258255 0.20789547 0.30698428 0.3125216 0.1827498 -0.029737987 -0.0076932213
0.021561058 0.1326944 0.0584106 0.22513552 0.012422039 -0.0075250915 0.0848835 -0.038553573
-0.027781362 -0.0068412432 0.113842554 0.010502426 0.08485967 -0.29667044 -0.09829153 -0.020621495
0.10719669 -0.22262006 0.056468774 -0.10624193 -0.033119235 -0.14859077 -0.03740117 -0.135569
-0.092090674 -0.18306623 0.146336 -0.00877898 -0.17762516 -0.13090952 0.10724894 -0.20552339
0.43978262 0.18932423 0.06294283 -0.20478319 0.009270273 -0.053942624 -0.11106768 0.109716386
-0.06294377 -0.20070496 0.04724064 0.28734753 -0.18496929 0.15801908 -0.05281088 -0.06465268
-0.07154567 -0.0012420232 0.09390409 0.001589645 -0.0035468882 -0.02982729 -0.13700609 -0.1448898
-0.02983032 0.048327748 -0.13065948 -0.3794055 -0.4071268 -0.19523098 -0.1065051 -0.15262869
0.02415416 -0.11521915 0.071541004 0.19815706 0.043300644 -0.25629905 -0.13902721 -0.2582479
0.015024544 -0.09549128 0.39650118 0.1827158 -0.027947456 0.14270967 0.0095607145 0.058328934
-0.4457999 -0.12608044 -0.315109 -0.059419084 -0.18160723 -0.22342464 -0.28154418 -0.09361053
-0.08468655 -0.1744587 -0.3331038 0.13636495 0.0060078986 0.06756238 0.018011063 -0.20322533
0.1677912 -0.05594919 0.06330698 -0.1734293 0.03969714 -0.04589966 -0.1487444 0.0052012736
0.053186778 -0.34450483 0.27307516 -0.06697352 0.00054965017 0.11703246 0.0063916524 0.13758208
-0.26076052 -0.0011434613 -0.19805467 -0.41195 -0.38817665 -0.2602289 -0.046521258 0.025249256
00000000: b770 25be 303a 0a3e c7ee c53d b545 aebf
00000010: 0e49 cebe 374a d3bd 1ef5 c53d 0c0d 43bd
00000020: ab41 453e ed34 1ebf aa0a d4bd 9181 1e3e
00000030: 22d0 9f3e 4431 fd3e 7590 4abd 073d 163d
00000040: 2575 ef3d 104a 713e 0520 29bf 91fc 333f
00000050: 786c 463e b913 4c3d 8b88 6f3d 0066 153d
00000060: 43b5 77be f89f 3c3d f679 11bf 4439 e53c
00000070: 5a51 083d 12f1 67be 9150 643e 6598 e23d
00000080: 85e9 0abd 5199 9b3d 1953 c7be 16e3 913e
00000090: 7d7b 29bd f47e d2bd 6aee c33a 1c01 413e
000000a0: 4cac 64be e82b 8a3c 6a0c dcbe c6b6 053e
000000b0: 72d4 d63d 4543 973d c1bd bd3e b060 49bd
000000c0: acba 69bd 8b67 be3e a02b 8a3e 6b41 a5be
000000d0: 27d0 243e 0b94 a0bd 06e5 b33d 91d0 0dbf
000000e0: dd03 073c cdfe 30be 1d5f e43e 6ce2 f73d
000000f0: f168 933d 6338 613e d1ae 283e eded e63e
00000100: 0bc0 b6be 9570 3cbf f59d 933e 347e 943d
00000110: 8c1c b7bd de3b 1ebf d482 debe 96ca 4fbe
00000120: c67d 56bf bfcd 5dbe da15 993e 04d5 d83d
00000130: 1482 4ebf 0237 213c 6643 9d3e 59d2 403e
00000140: b0df a2bd bcd5 40be c7f1 e5be d0a5 c0be
00000150: 3be3 f9bb 8f5c c1be 7b7b 89be 74a2 3c3e
00000160: e606 c4bd 64d0 ecbe 617f 33bf edfd b53e
00000170: 0958 24bf cfe9 6ebe 33f3 4abe 2882 e0bd
00000180: 51f6 afbe 2eb3 2dbe f4f4 933e 0ce0 1dbe
00000190: 9a3a bf3d 2a5e 45bd 415e 1d3d e761 183d
000001a0: d6e6 c93e 1c47 6fbd bfa6 4b3e ccda 33bf
000001b0: 864a 9fbf e5a5 543a 587f 3c3c 79d9 bbbe
000001c0: f352 71be 8e39 08bd 7126 04bd 0b29 19bf
000001d0: 95cc 513e f5f8 0b3e 20e6 15bb 9a42 b2bd
000001e0: 310f 20bf 58ef b7bd 0751 16bc b500 21bc
000001f0: c60a 583e 51bc fdbe 10d2 21bf 201a a83d
00000200: 3765 6b3d d599 833d 8de2 543e 0b2d 9d3e
00000210: d502 a03e c322 3b3e 149d f3bc 6b17 fcbb
00000220: d1a0 b03c 0ae1 073e f43f 6f3d ed89 663e
00000230: cf85 4b3c 0b95 f6bb 67d7 ad3d 5aea 1dbd
00000240: bd95 e3bc 822c e0bb 4926 e93d 5e12 2c3c
00000250: e8ca ad3d 30e5 97be 124d c9bd 69ee a8bc
00000260: f089 db3d 83f6 63be cd4b 673d 5e95 d9bd
00000270: 09a8 07bd 2e28 18be f831 19bd 9ad2 0abe
00000280: 099a bcbd b775 3bbe 1bd9 153e b6d5 0fbc
00000290: 5fe3 35be 250d 06be 55a5 db3d b974 52be
000002a0: 302b e13e 36de 413e 2ce8 803d afb2 51be
000002b0: 58e2 173c f1f2 5cbd 7477 e3bd fcb2 e03d
000002c0: aae8 80bd 9a85 4dbe 677f 413d 371f 933e
000002d0: 9768 3dbe c1cf 213e 3950 58bd a068 84bd
000002e0: 8986 92bd 62cb a2ba ca50 c03d a35b d03a
000002f0: e972 68bb 5c58 f4bc 534b 0cbe fe5d 14be
00000300: b75e f4bc 51f3 453d 99cb 05be 7041 c2be
00000310: ed72 d0be a1ea 47be 591f dabd b24a 1cbe
00000320: f2de c53c 05f8 ebbd 1784 923d afe9 4a3e
00000330: 045c 313d a139 83be 265d 0ebe 1239 84be
00000340: 8129 763c ef90 c3bd 3402 cb3e da19 3b3e
00000350: 10f2 e4bc 7c22 123e 8ba4 1c3c 52ea 6e3d
00000360: e23f e4be 3b1b 01be f855 a1be 6d61 73bd
00000370: 3ff7 39be 6ec9 64be 8f26 90be e1b6 bfbd
00000380: 2470 adbd 4da5 32be 958c aabe 41a3 0b3e
00000390: e8dd c43b 255e 8a3d f08b 933c 4d1a 50be
000003a0: 75d1 2b3e fa2a 65bd 17a7 813d 7397 31be
000003b0: 7899 223d 4801 3cbd 7450 18be 726f aa3b
000003c0: 61da 593d f062 b0be 82d0 8b3e 6a29 89bd
000003d0: 6616 103a b7ae ef3d 1171 d13b 51e2 0c3e
000003e0: 6782 85be 32e0 95ba d8ce 4abe 1ceb d2be
000003f0: 17bf c6be b93c 85be 138d 3ebd 87d7 ce3c

fc3.bias f4 [64]
-0.0410131 0.12846139 0.13132875 -0.10307014 -0.20615888 0.1010084 -0.16791545 -0.18237093
-0.10311005 0.04161934 -0.023878356 -0.24963528 0.0858773 -0.34453705 0.21980038 -0.1927479
-0.19166586 0.24957909 -0.040787585 -0.015328967 0.014450829 0.052813698 0.115769625 0.0329517
-0.349957 -0.14271466 -0.24943955 -0.031764176 0.06255232 -0.02774614 -0.26629546 -0.1887585
-0.09684985 -0.20073527 -0.11660117 -0.24845314 0.029262891 0.06228778 -0.027120652 -0.31898597
-0.007326498 -0.09798879 0.1286694 0.013273281 -0.5671495 -0.0021912144 -0.2099873 -0.31080738
-0.11419434 -0.102930576 -0.21580799 0.27704364 -0.19812614 0.14890622 -0.012469768 -0.04653293
0.16176474 -0.14016859 0.15756734 -0.034428645 0.0057886154 0.13736354 -0.20628983 -0.15513279
00000000: 5afd 27bd 628b 033e 0b7b 063e 7016 d3bd
00000010: 501b 53be 7edd ce3d 07f2 2bbe 72bf 3abe
00000020: 5d2b d3bd 0b79 2a3d 8b9c c3bc 64a0 7fbe
00000030: 70e0 af3d 2967 b0be 5a13 613e b55f 45be
00000040: 0e44 44be a991 7f3e e210 27bd 5926 7bbc
00000050: 2bc3 6c3c 2d53 583d a018 ed3d 5df8 063d
00000060: 902d b3be cb23 12be 156d 7fbe 271b 02bd
00000070: 6e1b 803d df4b e3bc e157 88be e949 41be
00000080: 3759 c6bd 8c8d 4dbe 98cc eebd 806a 7ebe
00000090: bbb8 ef3c 7921 7f3d 212c debc 2152 a3be
000000a0: 1f13 f0bb 59ae c8bd e9c1 033e 2d78 593c
000000b0: b630 11bf 7a9a 0fbb e906 57be 2522 9fbe
000000c0: b9de e9bd 44cd d2bd c5fc 5cbe aad8 8d3e
000000d0: 94e1 4abe df7a 183e ff4d 4cbc 5099 3ebd
000000e0: a8a5 253e 5b88 0fbe 5559 213e 0d05 0dbd
000000f0: 6dae bd3b 07a9 0c3e a43d 53be 21db 1ebe

fc4.weight f4 [64, 64]
-0.034785442 -0.065766424 -0.051027685 0.037730794 -0.09851592 0.030137734 0.035197333 -0.10639799
0.09148346 0.053900152 0.011745007 -0.032328125 -0.0099701695 0.07608306 -0.05638252 0.016164714
0.0023905635 -0.13715471 0.05273086 -0.03546721 -0.08723406 -0.023534056 -0.06915226 -0.04335119
-0.033288766 0.06785131 0.09261216 -0.050193463 0.00027447165 0.05889281 -0.099385 -0.051193375
0.026307454 -0.11338663 0.12951756 0.10936226 -0.10014605 0.039638296 0.026264984 0.10660398
-0.13616149 0.0043803323 -0.1325841 -0.14847814 0.109132364 0.05121613 -0.1298883 0.07082504
-0.13615546 0.05412434 0.043636903 -0.10047147 0.011647865 -0.054970644 -0.029851068 -0.030084439
0.056109317 -0.10414295 -0.03364521 -0.2176117 -0.009003005 -0.0065398403 0.028870082 -0.15412228
-0.10135591 -0.00707627 -0.5426102 -0.08535057 -0.15047584 0.20062569 0.1296096 0.11094698
-0.093687154 -0.20871037 0.079122946 0.2879595 -0.28605467 0.008985846 -0.37784746 -0.39815167
0.02518025 -0.1363067 -0.080539584 0.0957698 -0.7585452 0.1360503 0.063984886 -0.5548045
-0.1799897 -0.15193537 0.10882818 0.05167097 -0.42652842 0.13425685 -0.041346755 0.115175225
0.2566594 0.1693213 -0.26950207 -0.025265321 0.15104522 -0.042810474 -0.2848379 0.020532683
-0.030826274 -0.19428298 0.28818443 -0.26229924 -0.048941758 -0.4137073 -0.18449727 0.12532407
-0.015400264 -0.29740205 0.005105093 0.12151288 0.089133486 -0.052545305 -0.34702212 -0.42976394
-0.096894994 0.0013948069 -0.12328414 0.08403116 -0.5648816 0.020393971 -0.07737227 0.029048352
-0.35362935 0.07041943 -0.038686708 -0.068408795 -0.3336026 0.021569828 0.055089798 -0.24104977
-0.0757646 0.0083059175 -0.14439927 0.18622398 0.25070187 -0.03833257 -0.20605832 0.08799854
-0.07821855 -0.14654905 0.17960335 -0.09433118 -0.038710926 -0.23567678 -0.32012764 -0.24437623
-0.35462072 0.023686942 -0.43772113 -0.13052516 -0.16332953 -0.3261601 -0.2291419 -0.03820187
-0.01934063 0.0341876 -0.21604986 -0.03346062 -0.1308818 -0.37810838 -0.116592884 -0.32080093
-0.11089089 0.07480109 -0.025508208 0.060619857 -0.06986091 -0.0484343 -0.17216985 -0.3268983
-0.060666405 0.048240967 -0.15425494 -0.16861446 0.05260932 -0.16053717 0.010589072 0.26108742
-0.06788673 -0.109930806 -0.103605054 -0.16206014 0.049490903 -0.0076200124 -0.14461064 0.31403318
0.09602736 0.009444985 -0.029903451 0.28927636 -0.23060963 0.13767356 -0.19741537 0.14588255
-0.03561546 0.07936833 -0.50858456 -0.023673758 -0.17203054 -0.17006138 -0.21814284 -0.18131933
-0.16476914 0.042109333 -0.12188819 -0.2082585 -0.24949852 0.24410263 0.18624094 -0.3667238
0.18917404 0.5353922 -0.11162095 -0.27369884 -0.35700795 -0.19828427 -0.18916619 -0.27238318
-0.35528463 -0.11806775 0.23030137 0.0636661 -0.22212927 -0.22362004 -0.034054417 -0.011790425
-0.016443744 -0.004220203 0.14271396 0.33552894 -0.07745712 0.001118123 0.0068093757 -0.29442725
-0.6307945 -0.2725537 -0.119941086 0.23514687 0.015147464 -0.52252394 -0.44638777 -0.14747098
-0.004846355 -0.027652945 -0.17998128 0.17269705 -0.16825815 -0.24152733 -0.19980133 -0.3066027
00000000: 2e7b 0ebd 8cb0 86bd 6802 51bd 9b8b 1a3d
00000010: b7c2 c9bd 69e3 f63c 142b 103d 30e7 d9bd
00000020: ae5b bb3d 68c6 5c3d 216e 403c 7f6a 04bd
00000030: ec59 23bc 6fd1 9b3d 5bf1 66bd dd6b 843c
00000040: 00ab 1c3b 4972 0cbe 50fc 573d 1146 11bd
00000050: c5a7 b2bd 7eca c0bc b39f 8dbd 0491 31bd
00000060: cd59 08bd a1f5 8a3d 72ab bd3d a997 4dbd
00000070: f6e6 8f39 9639 713d 5d8a cbbd 25b0 51bd
00000080: bb82 d73c 4037 e8bd 40a0 043e 52f9 df3d
00000090: 5f19 cdbd c45b 223d aa29 d73c 3053 da3d
000000a0: eb6d 0bbe e488 8f3b 20c4 07be a70a 18be
000000b0: ca80 df3d 01c8 513d 7001 05be b80c 913d
000000c0: 566c 0bbe 7cb1 5d3d 9cbc 323d fcc3 cdbd
000000d0: b0d6 3e3c e628 61bd 3a8a f4bc a473 f6bc
000000e0: e2d2 653d e648 d5bd 8fcf 09bd 9ad5 5ebe
000000f0: 5781 13bc 284c d6bb f380 ec3c 3bd2 1dbe
00000100: b093 cfbd 0ee0 e7bb 81e8 0abf 48cc aebd
00000110: 5716 1abe d270 4d3e 61b8 043e 2c38 e33d
00000120: 0ddf bfbd 2cb8 55be 360b a23d 6d6f 933e
00000130: c275 92be 5f39 133c 3975 c1be 89da cbbe
00000140: d046 ce3c fc93 0bbe f0f1 a4bd f522 c43d
00000150: 0530 42bf c550 0b3e 820a 833d ab07 0ebf
00000160: 384f 38be f294 1bbe 4fe1 de3d f0a4 533d
00000170: ef61 dabe a17a 093e 375b 29bd fde0 eb3d
00000180: dc68 833e 9062 2d3e 2dfc 89be 38f9 cebc
00000190: 99ab 1a3e 095a 2fbd 46d6 91be 2834 a83c
000001a0: 6287 fcbc 1ef2 46be e98c 933e 164c 86be
000001b0: 2777 48bd 71d1 d3be daec 3cbe f454 003e
000001c0: 6451 7cbc 1545 98be a048 a73b bfdb f83d
000001d0: 9e8b b63d bf39 57bd e2ac b1be 050a dcbe
000001e0: e270 c6bd f4d1 b63a 657c fcbd 8718 ac3d
000001f0: 159c 10bf 4211 a73c 5a75 9ebd cff6 ed3c
00000200: e80e b5be 1038 903d f475 1ebd e919 8cbd
00000210: f6cd aabe 35b3 b03c d7a5 613d c0d5 76be
00000220: 782a 9bbd 8b15 083c 67dd 13be 80b1 3e3e
00000230: ff5b 803e 9d02 1dbd f400 53be 9438 b43d
00000240: 0c31 a0bd f410 16be f1e9 373e b530 c1bd
00000250: 598f 1ebd 4155 71be c5e7 a3be c33d 7abe
00000260: d990 b5be 1e0b c23c fc1c e0be 63a8 05be
00000270: db3f 27be 75fe a6be 2da4 6abe 9079 1cbd
00000280: 3e70 9ebc 4c08 0c3d 2d3c 5dbe 010e 09bd
00000290: e105 06be 6c97 c1be 40c8 eebd 0540 a4be
000002a0: c31a e3bd 5031 993d 97f6 d0bc 874c 783d
000002b0: 3d13 8fbd 0b63 46bd 4b4d 30be 375f a7be
000002c0: 567d 78bd 5298 453d 02f5 1dbe 45a9 2cbe
000002d0: df7c 573d db63 24be c97d 2d3c 40ad 853e
000002e0: 3308 8bbd 6723 e1bd e32e d4bd 18f3 25be
000002f0: f9b6 4a3d 4cb1 f9bb d014 14be f5c8 a03e
00000300: fea9 c43d 23bf 1a3c 15f8 f4bc 081c 943e
00000310: ee24 6cbe 4cfa 0c3e 4127 4abe 3c62 153e
00000320: 84e1 11bd dd8b a23d 9932 02bf 78ef c1bc
00000330: c628 30be 9224 2ebe d660 5fbe c6ab 39be
00000340: 3eb9 28be d67a 2c3d 84a0 f9bd b741 55be
00000350: 8a7c 7fbe 0af6 793e f2b5 3e3e 39c3 bbbe
00000360: d7b6 413e 770f 093f 8699 e4bd 4122 8cbe
00000370: bfc9 b6be 080b 4bbe c8b4 41be cf75 8bbe
00000380: dee7 b5be 81cd f1bd 1fd4 6b3e 5f63 823d
00000390: db75 63be a7fc 64be a57c 0bbd a02c 41bc
000003a0: 08b5 86bc a149 8abb 9c23 123e 73ca ab3e
000003b0: d7a1 9ebd fb8d 923a 2f21 df3b 2bbf 96be
000003c0: c07b 21bf 298c 8bbe aca3 f5bd 57ca 703e
000003d0: 122d 783c 21c4 05bf f08c e4be a202 17be
000003e0: 2cce 9ebb 6e88 e2bc 034d 38be 7fd7 303e
000003f0: dd4b 2cbe f152 77be b898 4cbe 07fb 9cbe

fc4.bias f4 [64]
-0.1440283 -0.14555399 -0.1899926 -0.22415046 0.34009835 0.1937012 -0.24591267 -0.17753309
-0.062187977 -0.17595394 -0.16049664 -0.16295607 0.3077171 -0.0775065 0.044843253 -0.05739733
-0.27577794 0.16003013 0.016829727 -0.20420724 -0.2983535 -0.18005553 -0.23323953 0.09200928
0.09230996 -0.20789936 -0.14396347 -0.15802784 0.0925381 -0.04570633 0.08227178 0.11633574
-0.069037296 0.06566865 0.081998356 -0.3636492 -0.3659425 -0.19298865 -0.080980286 0.31586778
-0.3252626 -0.1926203 0.098932266 0.09960849 -0.25943562 -0.09817285 -0.012015736 -0.14113997
-0.09316825 -0.048513975 0.24696739 0.08693404 0.1649757 -0.07855732 -0.08716445 0.08134719
0.05724329 -0.26006386 -0.29275998 0.32920495 0.1566899 0.18108588 0.16192292 -0.019381404
00000000: 287c 13be 1b0c 15be 6c8d 42be b387 65be
00000010: 5f21 ae3e 9b59 463e 88d0 7bbe 3ccb 35be
00000020: d2b8 7ebd 452d 34be 3b59 24be f5dd 26be
00000030: 198d 9d3e babb 9ebd 8fad 373d 7619 6bbd
00000040: c432 8dbe f0de 233e 7fde 893c b41b 51be
00000050: cac1 98be 7a60 38be 58d6 6ebe 5d6f bc3d
00000060: 010d bd3d 92e3 54be 296b 13be 0dd2 21be
00000070: 9e84 bd3d 9036 3bbd 1b7e a83d 6f41 ee3d
00000080: 6d63 8dbd 497d 863d c1ee a73d 3a30 babe
00000090: d15c bbbe d19e 45be fed8 a5bd 6cb9 a13e
000000a0: d288 a6be 423e 45be 009d ca3d 89ff cb3d
000000b0: bfd4 84be d90e c9bd a6dd 44bc ff86 10be
000000c0: ffce bebd 97b6 46bd 05e5 7c3e 790a b23d
000000d0: 64ef 283e a9e2 a0bd 4683 b2bd 5b99 a63d
000000e0: f177 6a3d 1727 85be a3e4 95be 8d8d a83e
000000f0: 5173 203e 946e 393e 1fcf 253e c0c5 9ebc

fc5.weight f4 [64, 64]
-0.010402406 -0.21863925 -0.033048723 -0.26323423 0.077772 0.074020036 -0.117361635 0.019377628
-0.28406954 -0.071538605 -0.080229096 -8.2139835e-05 0.14830177 -0.108469225 -0.067314096 0.27272022
-0.2627424 -0.034488298 0.092386365 -0.106940895 0.19408731 -0.120264456 -0.17314935 -0.20362704
-0.015002211 -0.082570784 -0.014181564 -0.20581143 0.1028004 -0.075717025 -0.104209684 -0.03944542
-0.26667175 0.23442143 -0.07235464 -0.13718718 -0.08422137 0.0043778853 -0.4203845 0.1529697
-0.2250158 -0.14197169 -0.27927804 0.16547179 -0.076794386 -0.031148 -0.036631066 -0.12935841
-0.10471202 0.0023410413 0.097282924 -0.32147136 0.11203369 0.0847882 -0.10263476 0.08120924
-0.18859896 -0.121139675 -0.1028611 0.030526873 0.23499367 0.068186454 -0.117627874 -0.38228458
0.07415314 0.043177202 -0.12852408 0.07129757 -0.0726098 -0.13651289 -0.05267349 -0.034617998
0.07226232 -0.121509895 0.032411575 -0.09920171 0.036747955 -0.10525934 -0.09198433 -0.06022932
-0.07265752 -0.032925352 -0.12296091 -0.0666845 -0.044923894 0.062382504 0.016447082 0.076745026
-0.08491025 -0.025661781 0.040299088 -0.043391824 -0.12767589 -0.11514798 -0.100487225 -0.02598676
-0.12249137 -0.063492745 -0.14156036 -0.058270015 -0.045394763 -0.15284884 0.09756304 -0.008562155
-0.05908121 0.072246395 0.10424796 -0.01644473 -0.024290795 0.09615713 0.0015569603 0.013036057
-0.023472534 0.028465519 0.014914471 0.07154175 -0.13080928 -0.034181204 0.012369802 0.0033030717
0.046672504 0.04758337 -0.12088998 -0.008416362 0.0012576431 -0.05827339 -0.11889356 0.0835
0.048794426 -0.24021406 0.07161582 0.081773974 -0.023863515 -0.108566724 -0.15307635 -0.117485665
-0.1183748 -0.12267924 -0.07594173 0.013647364 0.20632072 0.19141792 0.12662585 -0.05789664
0.16525318 0.23574936 -0.0010565039 0.015254917 0.25429374 -0.07635483 0.20832935 0.00927655
0.0667221 -0.017113062 0.029446037 -0.08854427 -0.026378052 0.08109481 -0.013889335 0.0803678
-0.11814504 -0.040290717 -0.46583718 -0.18913952 -0.04650516 -0.032420665 -0.32873595 0.06600521
-0.18650071 0.029736724 -0.7668021 -0.06322529 -0.23117593 0.031236228 -0.15656964 -0.09495476
-0.010359772 -0.19838396 -0.006374871 -0.115914114 0.069650576 -0.24959767 0.01672821 -0.036612134
-0.523626 -0.13687952 0.066561855 0.06046854 -0.11862165 0.086550005 -0.09984344 -0.13017547
-0.111119375 0.010671076 -0.3124927 0.15156205 0.20535642 0.34365422 -0.36361545 0.2608362
0.37954786 -0.073302194 0.09149535 0.063389435 -0.31777343 -0.26355124 -0.2073862 0.21801808
0.36661547 -0.25045505 0.21329364 0.09820413 -0.22024323 0.06614988 0.37530878 -0.29641986
0.17700736 0.016609984 -0.2923429 0.4037071 -0.24214916 0.10077844 0.07207788 -0.38935363
0.3299001 0.10882241 0.9013236 -0.12734649 -0.0309647 -0.23671733 0.14028156 -0.39165545
-0.15283798 -0.38253474 0.465577 -0.5098813 0.3290191 0.024721757 -0.32908148 0.087700136
-0.016077876 0.4596691 -0.42183328 -0.15239759 -0.4346543 0.4716561 -0.22171192 -0.46931034
-0.12619172 0.2368407 -0.011826237 -0.056333166 -0.109851845 -0.71262944 -0.14576581 0.22210956
00000000: da6e 2abc f8e2 5fbe 195e 07bd a3c6 86be
00000010: ed46 9f3d d197 973d 4c5b f0bd d5bd 9e3c
00000020: 9071 91be d582 92bd 274f a4bd 7d42 acb8
00000030: 6bdc 173e 1d25 debd f9db 89bd fca1 8b3e
00000040: 2c86 86be 9a43 0dbd 1035 bd3d d403 dbbd
00000050: d3be 463e 364d f6bd 104e 31be 9b83 50be
00000060: d5cb 75bc df1a a9bd ca59 68bc 3bc0 52be
00000070: 0489 d23d 8711 9bbd e36b d5bd 8591 21bd
00000080: 3389 88be 2c0c 703e ab2e 94bd cc7a 0cbe
00000090: 417c acbd 5d74 8f3b a33c d7be 17a4 1c3e
000000a0: 8b6a 66be 0761 11be 88fd 8ebe 7071 293e
000000b0: 6046 9dbd 172a ffbc 750a 16bd 8876 04be
000000c0: 4173 d6bd 286c 193b 453c c73d e597 a4be
000000d0: eb71 e53d 70a5 ad3d 2c32 d2bd 0851 a63d
000000e0: 1620 41be 1418 f8bd d7a8 d2bd 7e13 fa3c
000000f0: 2ea2 703e 57a5 8b3d e2e6 f0bd ceba c3be
00000100: 9add 973d 94da 303d d19b 03be 7604 923d
00000110: 72b4 94bd 09ca 0bbe 28c0 57bd 9acb 0dbd
00000120: 44fe 933d 2eda f8bd 00c2 043d 442a cbbd
00000130: 0685 163d 3592 d7bd 4862 bcbd 05b3 76bd
00000140: 77cd 94bd bcdc 06bd eed2 fbbd e291 88bd
00000150: 1e02 38bd cc84 7f3d 08bc 863c 7f2c 9d3d
00000160: 6de5 adbd a838 d2bc a810 253d a0bb 31bd
00000170: 78bd 02be b4d2 ebbd 3fcc cdbd 30e2 d4bc
00000180: c1dc fabd 7c08 82bd 33f5 10be 8aac 6ebd
00000190: dcef 39bd 6884 1cbe 22cf c73d 4848 0cbc
000001a0: 24ff 71bd ebf5 933d f47f d53d 19b7 86bc
000001b0: 7dfd c6bc 08ee c43d eb12 cc3a 3095 553c
000001c0: 7949 c0bc 8530 e93c d35b 743c 7b84 923d
000001d0: def2 05be 9701 0cbd b6aa 4a3c 5978 583b
000001e0: ab2b 3f3d c8e6 423d 2a95 f7bd c8e4 09bc
000001f0: 80d7 a43a 14b0 6ebd 777e f3bd 0c02 ab3d
00000200: aadc 473d adfa 75be 51ab 923d 1d79 a73d
00000210: 6b7d c3bc 3b58 debd 0cc0 1cbe 539c f0bd
00000220: 7d6e f2bd 413f fbbd 5687 9bbd 3299 5f3c
00000230: bd45 533e 0f03 443e 35aa 013e 0725 6dbd
00000240: 2138 293e 4868 713e 637a 8aba c2ef 793c
00000250: ca32 823e ec5f 9cbd 4a54 553e acfc 173c
00000260: 99a5 883d b130 8cbc d138 f13c b356 b5bd
00000270: c916 d8bc 0915 a63d 1890 63bc e097 a43d
00000280: 07f6 f1bd e107 25bd 3682 eebe caad 41be
00000290: 327c 3ebd 88cb 04bd 1450 a8be bd2d 873d
000002a0: 0bfa 3ebe 6e9a f33c 244d 44bf 437c 81bd
000002b0: 62b9 6cbe 1ee3 ff3c cb53 20be a477 c2bd
000002c0: 08bc 29bc 2a25 4bbe 4be4 d0bb 6164 edbd
000002d0: f6a4 8e3d 8896 7fbe 9909 893c 9bf6 15bd
000002e0: 5b0c 06bf 252a 0cbe 9551 883d dcad 773d
000002f0: e8ef f2bd 2141 b13d b87a ccbd b84c 05be
00000300: 8e92 e3bd bdd5 2e3c 0bff 9fbe 1533 1b3e
00000310: f448 523e 72f3 af3e ce2b babe 538c 853e
00000320: 1954 c23e 761f 96bd ea61 bb3d 52d2 813d
00000330: 33b3 a2be 30f0 86be 0c5d 54be 2240 5f3e
00000340: 06b5 bb3e a53b 80be a669 5a3e 3f1f c93d
00000350: 7187 61be 9779 873d 7928 c03e 58c4 97be
00000360: 6b41 353e a911 883c f8ad 95be b2b2 ce3e
00000370: f3f5 77be ed64 ce3d 919d 933d 5c59 c7be
00000380: aae8 a83e 49de de3d 25bd 663f 1e67 02be
00000390: afa9 fdbc 0766 72be f8a5 0f3e 1087 c8be
000003a0: 8f81 1cbe 98db c3be 1c60 ee3e 9587 02bf
000003b0: 3175 a83e 4885 ca3c 5e7d a8be 219c b33d
000003c0: c0b5 83bc c059 eb3e 88fa d7be 1d0e 1cbe
000003d0: 028b debe e97c f13e 7308 63be 7249 f0be
000003e0: 6738 01be 5e86 723e d5c2 41bc 9bbd 66bd
000003f0: 01fa e0bd e26e 36bf a243 15be b070 633e

fc5.bias f4 [64]
0.51485854 -0.14449139 0.51185834 0.3429725 0.4421517 0.14897826 0.42731306 -0.13500498
0.36493963 0.0031082125 0.37937978 0.5153516 0.30006093 0.58853066 0.034448434 0.14585441
-0.09317234 0.14970678 -0.16570523 0.5753601 0.57019717 0.58383125 -0.097528785 0.49435696
0.5004349 -0.12461951 -0.49293464 0.25397885 -0.10673006 0.15857199 -0.09673587 -0.08337852
-0.05781106 -0.39273706 0.06526524 0.06771444 0.045646388 0.1141709 -0.048941292 -0.11649232
-0.18203232 0.22654547 0.3091526 -0.20772675 0.13546054 0.52422255 0.26138666 -0.055041403
-0.15716878 0.4470722 0.16355279 -0.22784919 0.114713855 0.16550529 -0.13481084 0.10615092
0.22973421 0.52587014 -0.07735355 0.48662746 0.007851814 0.55438125 -0.11640001 -0.09234539
00000000: c5cd 033f 8df5 13be 2609 033f 179a af3e
00000010: b561 e23e c28d 183e c7c8 da3e bf3e 0abe
00000020: 5ed9 ba3e 27b3 4b3b 113e c23e 15ee 033f
00000030: 96a1 993e f2a9 163f cd19 0d3d dc5a 153e
00000040: 24d1 bebd bc4c 193e a2ae 29be cd4a 133f
00000050: 71f8 113f f775 153f 2cbd c7bd 5b1c fd3e
00000060: 801c 003f 8338 ffbd ee61 fcbe 8409 823e
00000070: 4a95 dabd b260 223e 751d c6bd 5cc2 aabd
00000080: 4acb 6cbd d514 c9be c8a9 853d dead 8a3d
00000090: b5f7 3a3d 6fd2 e93d aa76 48bd 8793 eebd
000000a0: ae66 3abe 89fb 673e 4049 9e3e 52b6 54be
000000b0: 2bb6 0a3e 7333 063f 79d4 853e 1873 61bd
000000c0: daf0 20be a6e6 e43e 627a 273e 4c51 69be
000000d0: 19ef ea3d 387a 293e da0b 0abe a765 d93d
000000e0: 723f 6b3e 6d9f 063f 8a6b 9ebd 3c27 f93e
000000f0: e5a4 003c eeeb 0d3f 2163 eebd 941f bdbd

fc6.weight f4 [4, 64]
0.2636018 0.11661476 0.18691012 -0.9777939 0.14233314 0.041259136 0.13143253 0.0612288
0.17746168 0.1953179 0.13115187 0.1763712 0.048030045 0.3402072 -0.12194908 -0.205423
-0.08297028 -0.264057 0.01808326 0.32604915 0.23550022 0.30786887 0.08282077 0.23274408
0.23287868 -0.07697679 -0.4283109 0.055554662 0.029215947 -0.23779598 0.071431465 -0.07009939
0.08426933 -0.202338 -0.7620746 -0.21704987 -0.15361083 -0.9758271 0.14419912 0.04775258
0.12088667 -0.27973527 0.11109181 0.03716685 -0.03942993 0.20475337 0.12561424 -0.058709603
-0.014089388 0.21906082 0.105509646 0.35846308 0.13672085 -0.49316794 -0.031535592 -0.027087215
0.0701179 0.18787745 -0.016800711 0.21550684 -0.35369295 0.24615288 0.097284034 0.007898814
0.10124055 -0.01741678 0.20001674 0.055522032 0.24514093 0.17472818 0.32737696 -0.05378322
0.39177626 0.061274063 0.15158938 0.2690496 -0.18624635 0.1787571 -0.50400424 0.3770013
0.078569815 0.39959133 0.03782154 0.3248214 0.2869304 0.2707733 -0.02742098 0.2181683
0.19805712 -0.06199995 -0.28903 0.1604625 -0.004445806 -0.1692816 0.016246429 -0.047981907
-0.12242236 0.042050496 0.074674256 -0.34429106 -0.3196563 0.13219796 -0.19193915 -0.013037767
-0.17952356 0.25277245 0.22646342 -0.22409579 0.100727975 0.36900517 -0.02347663 -0.035028063
0.058441147 0.05052809 0.15181057 0.016970882 0.48983908 0.025784887 0.051583096 0.14947517
-0.10590244 0.29564115 0.0031685736 0.20180087 0.023840109 0.09978332 0.01993689 -0.28411937
0.29071158 0.029624367 0.26585248 -0.27537128 0.27656293 0.028635995 0.3085657 -0.036328617
-0.18287681 -0.17769308 0.2842567 0.30595046 0.13651279 0.24459468 0.34632525 0.13477495
0.0072381725 -0.23481265 -0.010058563 0.1097119 0.19201435 0.30701742 -0.09145366 0.31954768
0.24489571 0.26393738 -0.030674355 0.21849847 0.06515287 -0.108290404 -0.045867868 0.056081805
-0.112503454 -0.077882 0.27674702 0.08587469 -0.18723099 0.31236902 -0.10850953 0.054993685
0.014698113 0.3337774 0.06965117 0.018213596 0.10638233 0.23095742 -0.9983892 0.022110209
0.041788768 0.30774197 -0.08490713 0.06969136 -0.048603628 0.19506548 -0.11292807 0.035622783
-0.87051445 0.24499314 0.2664134 0.23434317 -0.030875914 0.30692643 0.030956535 -0.00510103
0.16838513 -0.0022802982 0.28392282 -0.48162872 0.29770705 0.189744 0.115804195 0.10236366
0.21694706 0.16994749 0.14976253 0.22562397 -0.59239125 0.18912946 0.6363137 -0.093620986
0.06320642 -0.55920595 -0.10447912 0.3972525 0.31392926 0.15813752 0.07973363 0.13423772
0.16744831 0.06987853 -0.27552065 0.23447129 -0.051012717 -0.30607015 -0.04578182 0.085059896
-0.08099301 -0.20608939 0.19850683 0.49462017 -0.1683179 0.052770898 0.17378421 -0.048832223
0.01897433 0.44713727 0.1183731 -0.24970317 -0.27245322 0.23926492 -0.8731239 0.015686288
0.10517868 0.065503195 0.23815559 -0.07173261 -0.07234662 0.13102162 -0.043185163 0.13982852
-0.7746737 0.26915354 0.003501802 0.2120785 -0.2176751 0.2748202 0.013365199 0.23947324
00000000: d1f6 863e b8d3 ee3d 5e65 3f3e b350 7abf
00000010: c7bf 113e 57ff 283d 4096 063e 0dcb 7a3d
00000020: 84b8 353e 6a01 483e ad4c 063e a79a 343e
00000030: 27bb 443d a32f ae3e 70c0 f9bd 685a 52be
00000040: 52ec a9bd 7b32 87be 5823 943c eaef a63e
00000050: f826 713e fda0 9d3e f09d a93d 7754 6e3e
00000060: c077 6e3e 02a6 9dbd 914b dbbe 498d 633d
00000070: 4856 ef3c ca80 73be a94a 923d 4590 8fbd
00000080: 6695 ac3d b131 4fbe 5217 43bf 5242 5ebe
00000090: 284c 1dbe cecf 79bf efa8 133e 3698 433d
000000a0: 6e93 f73d 7639 8fbe 1a84 e33d 443c 183d
000000b0: 4781 21bd deaa 513e 05a1 003e 7b79 70bd
000000c0: 2dd7 66bc 7b51 603e 7115 d83d 7988 b73e
000000d0: 8d00 0c3e 8280 fcbe 772b 01bd 02e6 ddbc
000000e0: f999 8f3d f262 403e a5a1 89bc d3ad 5c3e
000000f0: 3e17 b5be 800f 7c3e da3c c73d 076a 013c
00000100: 3557 cf3d a3ad 8ebc 30d1 4c3e 126b 633d
00000110: 3906 7b3e f2eb 323e f49d a73e cb4b 5cbd
00000120: e696 c83e 83fa 7a3d 3f3a 1b3e dfc0 893e
00000130: 5db7 3ebe 1a0c 373e 6c06 01bf 5006 c13e
00000140: 36e9 a03d 3c97 cc3e c2ea 1a3d fe4e a63e
00000150: 8be8 923e cca2 8a3e f7a1 e0bc 8367 5f3e
00000160: 7ccf 4a3e a9f3 7dbd bdfb 93be 4850 243e
00000170: 20ae 91bb 2858 2dbe 3b17 853c ad88 44bd
00000180: 93b8 fabd 243d 2c3d d1ee 983d eb46 b0be
00000190: fea9 a3be e75e 073e b28b 44be 5c9c 55bc
000001a0: 06d5 37be 646b 813e 07e6 673e 5e79 65be
000001b0: 784a ce3d 3fee bc3e 1052 c0bc 9679 0fbd
000001c0: fc5f 6f3d 8bf6 4e3d 3b74 1b3e 8506 8b3c
000001d0: 30cc fa3e d43a d33c cc48 533d 0510 193e
000001e0: 61e3 d8bd 475e 973e d8a7 4f3b e3a4 4e3e
000001f0: 554c c33c 335b cc3d b052 a33c 1878 91be
00000200: 26d8 943e cdae f23c d11d 883e 77fd 8cbe
00000210: a899 8d3e 0996 ea3c 53fc 9d3e 51cd 14bd
00000220: 0f44 3bbe 2df5 35be 188a 913e 8aa5 9c3e
00000230: 02ca 0b3e 0777 7a3e 8b51 b13e 7202 0a3e
00000240: 312e ed3b ba72 70be accc 24bc a2b0 e03d
00000250: 699f 443e 6331 9d3e 0e4c bbbd c19b a33e
00000260: f1c5 7a3e cd22 873e c948 fbbc 10be 5f3e
00000270: de6e 853d 5cc7 ddbd f2df 3bbd 09b6 653d
00000280: 3668 e6bd 9980 9fbd c9b1 8d3e 12df af3d
00000290: 7bb9 3fbe d5ee 9f3e 3f3a debd 0f41 613d
000002a0: 5bd0 703c dfe4 aa3e 46a5 8e3d ae34 953c
000002b0: fbde d93d 1a80 6c3e 6f96 7fbf 7820 b53c
000002c0: b32a 2b3d 5b90 9d3e cae3 adbd 58ba 8e3d
000002d0: 9914 47bd 3fbf 473e d546 e7bd 32e9 113d
000002e0: 09da 5ebf 7bdf 7a3e 5667 883e a8f7 6f3e
000002f0: 7cef fcbc 7625 9d3e 8f98 fd3c 8b26 a7bb
00000300: 276d 2c3e 0e71 15bb 555e 913e 0a98 f6be
00000310: 0f6d 983e 404c 423e c02a ed3d 0aa4 d13d
00000320: 5f27 5e3e b706 2e3e 595b 193e f809 673e
00000330: f4a6 17bf 27ab 413e 74e5 223f 5cbc bfbd
00000340: 5e72 813d 1f28 0fbf 26f9 d5bd ae64 cb3e
00000350: 56bb a03e cdee 213e 634b a33d 9d75 093e
00000360: 9277 2b3e 7a1c 8f3d 0b11 8dbe 3e19 703e
00000370: b6f2 50bd 3ab5 9cbe b885 3bbd e233 ae3d
00000380: aadf a5bd 1909 53be 6045 4b3e db3e fd3e
00000390: 875b 2cbe 4c26 583d 7df4 313e 4c04 48bd
000003a0: 0e70 9b3c 2def e43e 996d f23d 30b2 7fbe
000003b0: fd7e 8bbe dd01 753e 0c85 5fbf 8880 803c
000003c0: eb67 d73d 8a26 863d 0fdf 733e 8ce8 92bd
000003d0: 772a 94bd 882a 063e ede2 30bd 352f 0f3e
000003e0: 0451 46bf 7ece 893e 7d7e 653b 1b2b 593e
000003f0: 39e6 5ebe 3cb5 8c3e b5f9 5a3c 7938 753e

fc6.bias f4 [4]
0.5610509 0.3514095 0.27719098 0.3978046
00000000: 08a1 0f3f f2eb b33e faeb 8d3e 0bad cb3e
